saved_models/hippo-whole.pt (torch, 127547 bytes, 78 tensors)

conv0_0.res_conv.weight f4 [1, 3, 3, 3, 3]
00000000: 5182 363d a1a2 82bd ffb7 88bd 8522 0e3d
00000010: 8542 523d f16c 86bd 9b79 05bd acdb a7bd
00000020: 22ed d43d 7325 69bb df8d 8bbd e273 903c
00000030: 5e72 57bd 4e10 c5bd 97b7 04bd 04f9 8a3d
00000040: 53cb 27bd 6dcf 06bd fa1f e13d 23bb 88bd
00000050: a14d 7b3d 4f73 52ba 3590 1dbc 7c4f 8e3d
00000060: 0c50 303b 7c3c 8d3d db8c acbc 0f57 9a3d
00000070: 2fb3 0fbc a68b babd 99a9 da3d c4de 5b3d
00000080: 2b64 dbbd c4a0 d33d 6ad5 5dba 7aea 61bd
00000090: 362c 30bd 50a0 bd3d 5ae4 b53d 4c74 573d
000000a0: e94b a7bd 50d8 d53d d052 373d e856 d13c
000000b0: e8e9 e83c 509e 893d d797 3d3c 6702 ae3d
000000c0: 5c1b 99bb 9ee5 d43d 4ed1 2c3d f431 6d3d
000000d0: f5a1 c03d f5f2 343c e0d4 7e3d 2492 5b3d
000000e0: 5a5a 46bd a6b4 b03d 18cc ff3c 799f dbbd
000000f0: 8be4 133c c662 8439 485f c63d 6835 80bc
00000100: b679 d4bc 5638 e2bd 061f ddbd 18ee bdbc
00000110: 4fb9 c43c e3c5 173d e714 f53c 321c a23d
00000120: 5c27 343d 73b8 5cbd 6db2 adbc d7cc 84bc
00000130: 8172 b5bc 9558 8cbb f6ab 523d 8c43 dc3d
00000140: 1c20 c33d
0.044557873 -0.06378675 -0.066757195 0.03470089 0.05133297 -0.06563748 -0.032586675 -0.08196196
0.10396792 -0.00355753 -0.06814169 0.017633382 -0.052599303 -0.096222505 -0.032401647 0.06785777
-0.04096539 -0.03291266 0.10992427 -0.066763185 0.06135333 -0.00080280466 -0.009616901 0.06948754
0.002690318 0.06896302 -0.021063259 0.07536136 -0.008770748 -0.09108667 0.106768794 0.053679243
-0.10712465 0.10333398 -0.0008462282 -0.055155255 -0.043010913 0.09259093 0.08881445 0.052601144
-0.081687756 0.10441649 0.04475671 0.025554135 0.028431848 0.06719649 0.011571846 0.08496552
-0.004672451 0.103953585 0.042191796 0.057908967 0.09405891 0.011044254 0.062214732 0.053606167
-0.04842601 0.08628206 0.03122525 -0.10723776 0.009026657 0.00025250594 0.09686142 -0.015650466
-0.025936943 -0.110459015 -0.10796933 -0.023184821 0.024014143 0.037053954 0.029917194 0.07915534
0.04398285 -0.053886842 -0.021203244 -0.016210956 -0.022149326 -0.0042830207 0.051433526 0.10755071
0.09527609

conv0_0.conv1.weight f4 [1, 3, 3, 3, 3]
00000000: 246f 64bc 7e92 86bd ebd7 873d a26b bbbd
00000010: db8c 61bd 0a13 eebc 42f8 51ba 557c d93d
00000020: 3147 13bb 214e d1bd 12d0 adbd 5ba1 dd3d
00000030: a7f7 823d 687c f6bb 65b5 9b3d ce4a d6bd
00000040: 7e17 c1bd 2823 f63b f604 b3bc 1bf6 923d
00000050: c919 a43d 34a8 70bc a547 bb3d a73e 5b3d
00000060: 05ed 1dbd 02bb bdbc aee0 c93c 7364 433d
00000070: fd50 96bd eb14 03bd 5c29 6c3d d3e0 763c
00000080: a361 9fbc 728f bfbd 059d 1ebc 0cc2 d33d
00000090: 0510 89bc 66ec aa3c 19fa 24bd 4810 b03d
000000a0: 5bba 14bb 2f2d 6abc 87fd a0bd 74f4 643d
000000b0: b9e5 f53c bfd9 fd3c 93a0 3abd a5c6 9c3d
000000c0: 7853 4c3d a171 11bd d405 da3d dd7c bfbd
000000d0: 64b0 7cbd fc98 713d f4f7 d2bd d35e 073d
000000e0: ab33 bbbd c4ca d3bd f650 d1bd 4db6 d0bc
000000f0: fa27 a73d 74b4 93bd 8a0c 8cbc 0e9d bc3d
00000100: ec40 4c3c 01f0 27bd 2652 e338 7beb 723d
00000110: bb96 2cbd 49b4 33bd 9fc7 223d 380c bf3d
00000120: cc70 57bc 6811 c73d 1a24 9dbc e5d1 0fbd
00000130: dbf5 23bd ce4a f83c 4dfa debd e93d 2abd
00000140: 6857 5cbc
-0.013942514 -0.0657091 0.0663298 -0.09151389 -0.05506597 -0.029061813 -0.00080097106 0.106194176
-0.0022472853 -0.1021998 -0.08486952 0.10821792 0.06394892 -0.0075221546 0.07602958 -0.104634866
-0.09428309 0.007511515 -0.021852951 0.07175847 0.08012731 -0.01468854 0.091445245 0.053526547
-0.038556118 -0.023160461 0.024643268 0.047703218 -0.07339666 -0.03200237 0.05765663 0.015068251
-0.019455737 -0.09353532 -0.009680991 0.10339746 -0.016731272 0.020864677 -0.040277574 0.085968554
-0.0022694084 -0.014292999 -0.078608565 0.05589719 0.030016767 0.030987618 -0.04556329 0.07655076
0.04988429 -0.035508756 0.10645643 -0.09349988 -0.061691657 0.058983788 -0.103011996 0.033049416
-0.09140714 -0.10341409 -0.1022052 -0.025477553 0.08161922 -0.07212153 -0.017095823 0.09209643
0.01246665 -0.04100037 0.00010839505 0.059306603 -0.042135935 -0.043873105 0.039741155 0.093285024
-0.013149451 0.09720117 -0.019182254 -0.03511228 -0.040029388 0.030309107 -0.10887585 -0.04156295
-0.013448574

conv0_0.conv2.weight f4 [1, 1, 3, 3, 3]
00000000: 7468 853b ffe3 2ebd 04c1 97bd 2af7 1dbe
00000010: 700e 263e a865 8cbb c5e7 f0bd d413 403e
00000020: 41bc e13d 7479 a03d 81b6 b0bd 9013 d6bd
00000030: c982 313e 64a3 c1ba 05b4 29be 1e17 9ebd
00000040: 3bfb 3fbe bd7d 0dbd c877 bcbd f233 f3bd
00000050: 123d 4a3b 9170 2fbd 3031 1ebd cb80 fcbd
00000060: 60b4 2fbe 25ad de3c dc32 393e
0.0040712897 -0.042697903 -0.07409862 -0.15426317 0.16216445 -0.0042845793 -0.117629565 0.18757564
0.11022235 0.07835665 -0.0862856 -0.1045295 0.17335047 -0.0014773426 -0.16572578 -0.07719253
-0.1874818 -0.03454374 -0.09202534 -0.11875142 0.0030859155 -0.04283196 -0.038621128 -0.12329253
-0.17158651 0.027182171 0.18085808

conv1_0.conv1.weight f4 [1, 1, 3, 3, 3]
00000000: d405 b6bb d1c0 13bd ec68 e0bd 5d38 b3bc
00000010: 830b 303e fb20 313e 1255 fcbd 4dbe 3b3e
00000020: 462b 27bc ead1 4e3d ca08 c3bd bb74 713d
00000030: a515 543d 391a c83d 7adc 46bd d803 bf3d
00000040: 06a1 e8bd a41d 883d 0918 a8bd 4efc cc3c
00000050: 11dc b43d 16a8 153d 3e38 973c 76a4 aa3c
00000060: 155d 22bd 5caf 8ebd 4d8b e83c
-0.005554894 -0.036072556 -0.10957512 -0.021877462 0.17191891 0.17297737 -0.123209134 0.18334313
-0.010203188 0.05049316 -0.09523161 0.058949213 0.051778454 0.097706266 -0.048550107 0.09326905
-0.11358838 0.066462785 -0.08207709 0.025022652 0.08831037 0.036537252 0.018459436 0.020830374
-0.03963955 -0.06967041 0.028386736

conv1_0.conv2.weight f4 [1, 1, 3, 3, 3]
00000000: b6de dcbd 2ef5 c5bd feee d33d fc6e e4bd
00000010: de61 9fbd d590 77bd 4e30 b6bc 8b59 003e
00000020: 567f da3d 7763 9f3d 4125 e13d f043 7a3b
00000030: 1b36 e53d 25a7 e6bd 1f6e 2f3d 4c30 3fbe
00000040: 00b9 26be c933 06bd de51 b83d a66c 18be
00000050: d756 2b3e d57e 263e 5aba 09be 1a95 18be
00000060: d3e2 8dbd bf02 003e 3ef9 b3bd
-0.10784666 -0.09665905 0.103483185 -0.11153981 -0.077823386 -0.060440857 -0.02223983 0.12534158
0.10668819 0.07782643 0.10993434 0.0038187467 0.111919604 -0.11262349 0.04282963 -0.18670768
-0.1628151 -0.03276423 0.0899999 -0.14885196 0.16732346 0.1625932 -0.13449994 -0.14900628
-0.06928029 0.12501048 -0.087877735

conv0_1.res_conv.weight f4 [1, 2, 3, 3, 3]
00000000: 5b69 be3d e1b2 3f3d 9dfc d23d 2aab b6bd
00000010: d44a c2bd aaf5 08be 5fb7 fe3d 2f7a 6dbb
00000020: e7f1 cdbd 7278 593d 4c13 06be 05f0 abbc
00000030: 4f2e 67bc 46d4 393d fbed d43c 4a36 703c
00000040: 6dd1 cdbd 45bc d6bd 0128 913d 8c7a fb3c
00000050: 9f73 e23d e5be 09be 91ba 363d 31c5 c63d
00000060: 9ecf f3bd f239 0b3d 8bf0 a9bd 4690 043e
00000070: 2120 603d 56cd 82bc b255 b63c 634d 933d
00000080: ae4b dcbd 6500 373d a650 aa3a b93f 493d
00000090: 2ba7 8dbd 9572 2f3c c726 a23d 6f43 38bd
000000a0: 1eba eabc 3980 c13d 4564 0fbd 0b08 20bc
000000b0: 5db4 7f3d c17a c73d 15bb 653c 6e33 a2bc
000000c0: b082 bcbd 2923 0abd d2ae f6bd 6760 e0bd
000000d0: 5b57 bb3d 1340 a03c
0.09297439 0.04680145 0.103020884 -0.08919366 -0.094869286 -0.13374963 0.12437319 -0.0036236157
-0.10055905 0.05309338 -0.13093299 -0.020988474 -0.014110162 0.045368455 0.025992384 0.014661381
-0.100497104 -0.10485128 0.07087708 0.030698083 0.11057209 -0.13451727 0.044611517 0.0970558
-0.11904834 0.033990808 -0.08297833 0.12945661 0.05471814 -0.015967052 0.02225766 0.07192495
-0.10756622 0.04467811 0.0012994006 0.049133036 -0.069166504 0.010708471 0.079175524 -0.044986185
-0.0286532 0.09448285 -0.035007734 -0.009767543 0.062427867 0.0974021 0.014021655 -0.019799914
-0.09204614 -0.033724938 -0.12045063 -0.10955887 0.09147521 0.019561803

conv0_1.conv1.weight f4 [1, 2, 3, 3, 3]
00000000: 5ca5 80bd c23b f83c 7efa 09be 1d7e e63d
00000010: e73b 26bd da09 083e bdf4 6d3d 80d9 083e
00000020: 79b9 d1bd bf12 803d d3c8 07bd 008f babd
00000030: 5a59 00bd 3c02 033e a758 bd3d 19a3 e1bd
00000040: 1d7f 143d f52a 143d b16d cabc 78f2 c7bd
00000050: cb87 a9bd 8eca cebd b23a 933c 727a 85bc
00000060: 49a1 f33d 2b71 43bd bd39 e4bd 095f bb3d
00000070: 9a88 94bc 5462 f63d 5ba0 29bd 98ea df3d
00000080: fcf7 f63d 9372 2abd eef0 8c3c ff56 5dbd
00000090: d4f6 0abc 9052 13bb f815 d53d 09ee 04bd
000000a0: 83df 0b3d 7e2d b53c c856 c13d dc23 d8bd
000000b0: ec30 503c 8f20 083d f1c6 44bd 4f68 dfbd
000000c0: ce63 b23c b46f 29bc a100 5ebd 7d3a 74bd
000000d0: f669 d13c c974 c9bd
-0.0628154 0.030301932 -0.13474461 0.11254523 -0.04058447 0.13285008 0.05809473 0.1336422
-0.10240454 0.062535755 -0.033150505 -0.09109306 -0.031335212 0.12793821 0.09245425 -0.110174365
0.036254037 0.03617378 -0.024710508 -0.09763044 -0.082778536 -0.10097228 0.017972324 -0.016293738
0.11895997 -0.047715347 -0.11143825 0.09148986 -0.018131543 0.12030473 -0.041412693 0.10933417
0.12059018 -0.041613173 0.017204728 -0.054038044 -0.0084817 -0.002247963 0.10404581 -0.03245357
0.034148704 0.022116419 0.0944038 -0.10553715 0.012706976 0.033234175 -0.048041288 -0.10908567
0.021776106 -0.0103415735 -0.05419982 -0.05962609 0.025563221 -0.09836728

conv0_1.conv2.weight f4 [1, 1, 3, 3, 3]
00000000: 6c03 013e a15f 9e3d 8dcf 133e dec7 c1bd
00000010: b546 833d 1a88 d0bd 1ff8 1b3c c347 043e
00000020: 86ff e8bc 38ce acbd 7342 f5bd b7e4 093e
00000030: 9c9a 7b3d c640 7fbd 0e14 fabc 8c12 033e
00000040: 56f8 18be 93b7 51bd f2cb 0abe abbb d3bd
00000050: 9ee7 febc 6463 08be cbee 88bd b71d e6bd
00000060: ab81 e53d 4f64 e63d b6b7 f83d
0.12598962 0.077330835 0.14434643 -0.0946195 0.06409971 -0.10182209 0.009519606 0.12918
-0.028442156 -0.084377706 -0.11975565 0.13466154 0.061426744 -0.062317632 -0.030527141 0.12800044
-0.14938483 -0.05120046 -0.13554361 -0.10338529 -0.031116303 -0.13319165 -0.06686171 -0.112361364
0.11206373 0.11249601 0.12144415

conv2_0.conv1.weight f4 [1, 1, 3, 3, 3]
00000000: 3d45 02be f94f 103e 7208 43be 98d7 86bd
00000010: accf 1a3e 9f81 163e ac91 dd3d a8e9 ea3d
00000020: 4d1a e5bd 2547 f2bd b54f c43d fa11 3e3e
00000030: 8259 033e 1e21 25be 3a35 243d 44eb ebbd
00000040: 799f 2ebd a769 2d3d 0bdc 06bc a23c 293e
00000050: f8cb 073d 22e2 123d a983 2ebe fd47 933c
00000060: ba10 41be f94f 3fbe c7ab be3d
-0.12721725 0.14093007 -0.1904619 -0.0658409 0.15118283 0.14697884 0.108188 0.11470348
-0.11186657 -0.11829976 0.095855154 0.18561545 0.12827113 -0.16125914 0.040089823 -0.11519483
-0.042632554 0.042337086 -0.008231173 0.16527036 0.033153504 0.03586019 -0.17042412 0.017978663
-0.18854037 -0.18682851 0.09310108

conv2_0.conv2.weight f4 [1, 1, 3, 3, 3]
00000000: 1e7a ecbd e3ca df3c 2760 a53d 46db 70bd
00000010: 2b8a 9ebd 0089 38be 8b49 82bd 96c5 413d
00000020: ec75 e8bc 84b8 00be 3426 ed3d d1c7 1d3e
00000030: 15f8 d4bc 3be6 1bbe ff42 fd3d 27ea cf3d
00000040: 1386 a6bc 07ce 853d e5c5 493d bbcd 28be
00000050: 0851 0b3d 8722 023e 80d0 49bd 3bb2 c03d
00000060: f767 b1bd 54fd 12be f835 e03c
-0.115467295 0.027318424 0.0807498 -0.058802865 -0.07741197 -0.18021011 -0.063616835 0.047307573
-0.028376542 -0.12570387 0.11579552 0.15408255 -0.025997201 -0.15224545 0.12366294 0.10152083
-0.020327603 0.06533437 0.049260993 -0.1648473 0.034012824 0.12708484 -0.049271107 0.09408995
-0.08662408 -0.1435445 0.027369484

conv1_1.conv1.weight f4 [1, 3, 3, 3, 3]
00000000: c571 26bc cc36 533d 98a3 8e3d 5b84 42bd
00000010: b908 303d 10c2 893d 0bd3 ecbc 5c40 da3d
00000020: d759 9fbd dda0 70bc 9051 bebd 35a8 81bc
00000030: d6f2 833d a18e 3b3d 9387 6abc c911 d9bd
00000040: a225 df3d 8c15 943d 3914 a8bd 7ec7 e03d
00000050: 0791 cabd 7f47 59bd d1dd 6b3d afe5 8bbd
00000060: 5547 cdbd 0afe cf3c 7b8e 70bd 8efe a0bb
00000070: c676 b7bd 7511 d6bd 0030 863d f61d 873d
00000080: e286 babd 501f 423c fc40 9b3c d876 873d
00000090: 30db 0bbc ba13 853d 7029 04bb 44c9 afbd
000000a0: a82c c83d 3c4b dc3d a045 58bc fdbd c2bd
000000b0: df53 4dbd 666f b0bd 077d 153c ae35 11bd
000000c0: 0198 ccbc 16d9 dbbd d665 983d 542b c93d
000000d0: b51e d8bd dad4 72bb dc5b 753d 575e b0bd
000000e0: 42d4 9f3d e9c7 e03d 1195 bfbd ed40 f93a
000000f0: 4235 6dbd fe10 c2bc 38be 853d 66ed bd3b
00000100: 9740 e43c f28e 90bb 7e59 79bd 4427 a33d
00000110: 07e0 1f3c e269 803d 764f c93d 7160 853c
00000120: 30ba dbbd 1fc5 47bd 2acb 8e3d b083 d53d
00000130: ce0e 8ebd 4655 5fbd bf18 44bd dcd4 04bd
00000140: e6f4 d73d
-0.010158961 0.05156593 0.06964797 -0.047489505 0.04297707 0.067264676 -0.028909227 0.10656807
-0.077808075 -0.01468679 -0.092929006 -0.015827278 0.06442802 0.04579032 -0.01431455 -0.105990954
0.1089585 0.07230672 -0.08206982 0.1097555 -0.09890943 -0.0530467 0.057584587 -0.06830918
-0.10023371 0.02538969 -0.05872963 -0.004913158 -0.08958201 -0.104525484 0.06552124 0.065975115
-0.09107758 0.011848286 0.018951885 0.066144645 -0.008536145 0.06497903 -0.00201663 -0.0858331
0.097741425 0.10756537 -0.013200194 -0.09508894 -0.050128814 -0.086149976 0.009124047 -0.035451584
-0.024974825 -0.10734765 0.07441299 0.09822717 -0.10552732 -0.003705314 0.059902057 -0.08611744
0.07804157 0.1097563 -0.09354604 0.0019016542 -0.05791212 -0.023689743 0.06530422 0.0057961224
0.02786283 -0.0044115717 -0.060876362 0.07966474 0.009758002 0.062701955 0.09829609 0.016281338
-0.10728872 -0.048771974 0.06972344 0.10425508 -0.069364175 -0.054524682 -0.047875162 -0.03242956
0.105447575

conv1_1.conv2.weight f4 [1, 1, 3, 3, 3]
00000000: f5c4 8abd dbdd d4bc 2e1e 2dbe 2318 763d
00000010: c9af c33d 1b29 3b3d 6b21 2abe ad2a be3d
00000020: 825b 3dbe 2845 8fbd 3bfc b7bd 89a9 74bd
00000030: 350a d93d c8ac 24be 83b5 f5bd 8ee3 aabd
00000040: cd2d 083e e5a5 ef3d 263d 78bc 51cc a03d
00000050: 1d30 a83d 4975 343c b14d 2f3e 52e1 7dbd
00000060: b021 b0ba e12f 8b3d 5940 7dbd
-0.06775848 -0.025984695 -0.16906044 0.060081612 0.09555013 0.045693498 -0.1661431 0.092854835
-0.18491939 -0.069956124 -0.08983656 -0.059731994 0.1059765 -0.16081536 -0.11997511 -0.08344184
0.13298722 0.11701564 -0.015151298 0.0785147 0.08212302 0.011014291 0.1711948 -0.06198246
-0.0013437774 0.067962416 -0.061828945

conv0_2.res_conv.weight f4 [1, 2, 3, 3, 3]
00000000: fd97 b7bd ca29 d03c 03f7 d7bd cba8 9c3d
00000010: 3ab8 8d3c 5567 0cbd 7b88 66bc 6107 163d
00000020: 7a5d b3bd 1933 33bd 9d16 723d 6524 db3d
00000030: 35df 3b3d c143 7d3d c367 9f3d 6deb 2cbb
00000040: b35f dcbd bfa4 acbd cbf3 d53d 313a f73d
00000050: 916c 243d c997 e03d a5e1 fc3d 856c 6f3d
00000060: 5179 f2bd b055 e6bd afd2 57bb 714a a23d
00000070: 837e cf3d c15b 773d 0f25 dcbd a2c5 083e
00000080: ae7c 093e 0902 f63d 8a59 c63c 9f00 d63d
00000090: c48f 083c 660d a7bc 4ce1 50bc bb96 d2bd
000000a0: 3088 bdbd c72a 9e3d f19e adbd 8e45 abbc
000000b0: 2235 eb3a 4aca 09be fb44 25bd f990 d6bd
000000c0: c837 083e b776 b8bb 9cdf 0dbc b58d 9fbd
000000d0: 0f02 e83d 4adb d83c
-0.08964536 0.025410552 -0.105451606 0.07649382 0.01729976 -0.034278233 -0.014070625 0.03662813
-0.087580636 -0.043749902 0.059103597 0.10700301 0.045867164 0.061832193 0.07783463 -0.0026385442
-0.10760441 -0.0842986 0.104468904 0.12071646 0.0401426 0.10966451 0.12347726 0.0584531
-0.118395455 -0.11246812 -0.0032931974 0.07924355 0.10131552 0.060390238 -0.10749256 0.13356641
0.13426468 0.12012107 0.024212617 0.10449337 0.008335058 -0.020392131 -0.012749027 -0.10282656
-0.09254491 0.07723003 -0.08477581 -0.02090719 0.0017944912 -0.13456073 -0.040348988 -0.1047687
0.13302529 -0.0056293863 -0.00865927 -0.077907 0.11328518 0.026471753

conv0_2.conv1.weight f4 [1, 2, 3, 3, 3]
00000000: 810a cd3d b912 0abe 09a7 9f3d 0a0d dbbc
00000010: 4e5b a4bc 8ce1 09be 1e6d a0bc b573 cebc
00000020: f01c ad3d 6f91 63bd f903 03be d22a 00be
00000030: e288 0b3e 3d65 b43c eb7a c3bb 8933 f93d
00000040: de43 9cbc 2279 95bd 2b6e 9f3d f582 40bc
00000050: ef73 213d 9fd5 343d 16bc ebbd 6d41 65bd
00000060: 92e6 c03d 0fdb 90bd 0e58 ab3d 5d58 49bd
00000070: 24b8 86bd 77db ba3d 93cf ea3d ce73 f83c
00000080: 8ef5 39bd b4ba eabd 1192 49bd cea5 6bbd
00000090: 595e c63d 3762 fc3d 2f78 63bd 9f84 693d
000000a0: d4d1 1ebc db35 1a3d 5ecc 903c d95e c63d
000000b0: b8af f1bd ef79 cf3d 06f7 8c3c e332 b6bc
000000c0: 39dc c83d b60f 01be af82 82bc ae98 153b
000000d0: 5a96 c03a 67d4 f1bd
0.10011769 -0.13483705 0.07795531 -0.026739616 -0.020063069 -0.13464946 -0.019583281 -0.025201658
0.08452785 -0.05555862 -0.12794484 -0.12516335 0.13626435 0.02202093 -0.0059655807 0.12168033
-0.01907533 -0.07298495 0.07784685 -0.011749973 0.039417204 0.044149037 -0.11510484 -0.055970598
0.09418978 -0.07073032 0.083664045 -0.049156535 -0.06578091 0.09123891 0.11465373 0.030328657
-0.045400195 -0.11461392 -0.049211565 -0.05753117 0.09685964 0.123234205 -0.055534538 0.057011243
-0.009693582 0.037649017 0.017675575 0.096860595 -0.11801094 0.10130679 0.017207634 -0.022241062
0.09807629 -0.1260365 -0.015931455 0.00228266 0.0014693246 -0.11808091

conv0_2.conv2.weight f4 [1, 1, 3, 3, 3]
00000000: 1efd 60b9 0f0c 0d3e 15eb 39be 01e1 403e
00000010: 154f 43be 5af4 743c 712b 983d 55f5 65bd
00000020: 49d6 3c3e 11df a83d e86f 08bc 439a 03be
00000030: 7102 57bd 756b 10bd 0c0f 1fbe a173 343e
00000040: 31b5 a73d c7f9 be3d 69b0 2ebd 4f23 0bbe
00000050: 2d29 33be 3dc7 233e 3ad9 203e 5740 6cbd
00000060: 5214 7c3d 531d 083e 5b3a 183e
-0.00021456598 0.13774131 -0.18156083 0.18835832 -0.19073136 0.014950836 0.07430161 -0.05614217
0.18441118 0.082456715 -0.008327462 -0.12851815 -0.052492563 -0.03525873 -0.15533084 0.17622234
0.081888564 0.09324985 -0.042648707 -0.13587688 -0.17496176 0.15993972 0.15707865 -0.057678547
0.061542816 0.13292436 0.14866011

conv3_0.conv1.weight f4 [1, 1, 3, 3, 3]
00000000: aae3 babd 9182 14be d9e4 f5bd 8cfe e53c
00000010: b414 27be 0162 d93d 1b31 c33c c3e7 2dbe
00000020: f2c2 dbbd 33b1 f2bd fb16 ab3d 17b8 60bc
00000030: 03e3 9c3d 91c3 843d 9c65 2c3c 2916 d9bc
00000040: b902 6abd e1cf 8b3d 9260 5c3d b0cf aebd
00000050: 9b58 dcbd dbba ad3d 66ac 17be f74e 35bc
00000060: 12b9 f9bd 3ff8 5f3d 6060 f43d
-0.09125455 -0.14502932 -0.1200654 0.028075479 -0.16316491 0.10614396 0.023827126 -0.16982941
-0.10730542 -0.11850204 0.083539926 -0.013715765 0.076604865 0.06482614 0.010522272 -0.026499825
-0.057131503 0.06826759 0.053803034 -0.08535707 -0.10759088 0.084829055 -0.14811859 -0.01106619
-0.121935025 0.054680105 0.119324446

conv3_0.conv2.weight f4 [1, 1, 3, 3, 3]
00000000: b9e4 0ebe 758d c23d 07fe 713c e1f4 82bb
00000010: 3c99 933d 37e7 27be 2879 f13a f27a 3f3d
00000020: eb38 27be 6db6 7c3d 4870 b7bd 21a7 373e
00000030: dea2 333d 3dd3 0a3e 8c2c 92bc 3439 f5bd
00000040: d2c7 3abe 368a 5cbd d15e 6bbc 8850 413d
00000050: 9068 1abe fab2 edbd d07b 02be 537f a93c
00000060: dab0 353e d7c9 b23d acfc 3d3e
-0.13954438 0.09499637 0.0147700375 -0.003996477 0.072069615 -0.16396795 0.0018422948 0.04674811
-0.16330306 0.061697412 -0.08956963 0.17934848 0.043856494 0.13557144 -0.017843507 -0.11973801
-0.18240288 -0.053842746 -0.014365868 0.04719594 -0.1507895 -0.11606403 -0.12742543 0.020690596
0.17743245 0.08729904 0.18553418

conv2_1.conv1.weight f4 [1, 3, 3, 3, 3]
00000000: c7b8 8cbc 708d e13d 8d35 c4bd 0b4f afbd
00000010: 3ff8 23bd 1c2c 66bd fd3e 9cbd 9f58 8bbd
00000020: a55b a5bd 71a6 b9bd 261e e4bc 3d48 6b3d
00000030: e24e e2bd 3335 513d 913b 0ebd 4926 28bc
00000040: 4180 3abd 0934 6f3d 01fb ed3c 5888 993c
00000050: e898 3f3d f67a 38bc be8c 823d 33eb 11bd
00000060: 64ce b23d 6ee1 b33d 39bb 693d b57b 9fbc
00000070: 34aa 0cbd 50d4 dbbd 79ad 1cbd a3de 54bd
00000080: 44fe ddbd 4fe7 10bd 4404 e03d df1f 833c
00000090: 45e9 5b3b eda0 053d 7b18 96bc 2060 6dbd
000000a0: 4457 dd3d 4045 c93c abe8 8dbc 3c9f bc3d
000000b0: 52f0 cb3d 8fb5 b0bd e92c 20bd b433 35bd
000000c0: a5cf 86bd 06de acbc 4f1d 54bd 1f61 32bd
000000d0: 124f 86bd 755d b73d 6901 883d 1c2d 1d3d
000000e0: f09f 843d 74a5 ad3d f2a3 c53b fe0c a53d
000000f0: 4bb1 cebd 7fbe 74bc d07b 623b bce9 9dbd
00000100: 993f 823c 862b d13d 941f 353d 173e 9ebd
00000110: 016f 963c e824 d4bd 872b abbd e605 803d
00000120: e54f 17bc 4cd0 ca3d 5c78 6dbd 81aa d6bd
00000130: 358d 6bbd 8041 263d 7d00 c0bc 6c16 8f3d
00000140: 1d2d 02bb
-0.017177952 0.11013305 -0.095805265 -0.08559998 -0.040031668 -0.05619441 -0.076292016 -0.068040125
-0.080741204 -0.09064949 -0.027846407 0.05744194 -0.11050202 0.051076125 -0.034724776 -0.010263034
-0.04553247 0.058399234 0.029050352 0.018741772 0.046776682 -0.011259785 0.06374501 -0.035624694
0.08730772 0.08783232 0.057063315 -0.019468168 -0.034342006 -0.10733855 -0.038251374 -0.051970135
-0.10839513 -0.035376843 0.109383136 0.016006408 0.0033555788 0.032624174 -0.01832222 -0.057953
0.1080766 0.024569154 -0.017322859 0.09210059 0.09957947 -0.086283796 -0.03910533 -0.04423876
-0.06582574 -0.021101963 -0.051785763 -0.043549653 -0.0655805 0.089533724 0.06640894 0.038373098
0.06475818 0.08478823 0.0060315067 0.08059119 -0.1009241 -0.014937996 0.0034558661 -0.07710597
0.015899466 0.102133796 0.04421957 -0.077266864 0.018363478 -0.10358602 -0.083579116 0.06251125
-0.009235357 0.09903011 -0.05797611 -0.1048174 -0.057507712 0.04058981 -0.023437733 0.069866985
-0.0019863315

conv2_1.conv2.weight f4 [1, 1, 3, 3, 3]
00000000: 12bb fbb9 587c 213e f0c6 8bbd e81f 783c
00000010: efa0 ef3d 5a96 e7bd 78a5 143e b58c 41bc
00000020: 4fb2 933d d55d 883d 2ee5 10be 60f0 3e3d
00000030: 4a5b 2c3d d2c5 2ebd 80c7 14be abbf 0b3e
00000040: d6ec 423d 0cf2 f6bc 58fc 06be 03eb 69bd
00000050: dbb9 edbd b5aa 073d 8ccf 36be 8213 04be
00000060: a503 bbbc 8812 1fbe 1bc9 9d3a
-0.0004801383 0.1577009 -0.06825054 0.015144326 0.117006175 -0.11307974 0.14516246 -0.011813332
0.07211744 0.06658522 -0.14149925 0.04661596 0.042079248 -0.042669125 -0.14529228 0.13647334
0.047589146 -0.030144714 -0.13182199 -0.05710889 -0.11607715 0.033121783 -0.1785261 -0.12898067
-0.022828886 -0.15534413 0.0012038084

conv1_2.conv1.weight f4 [1, 3, 3, 3, 3]
00000000: b178 aa3c 4be8 8ebc 4b5a 39bd 7af3 093c
00000010: 19a8 b7bd e53b 5a3d 433d 7a3c 6bd4 93bd
00000020: c6f4 bb3d 815f f53c 83c6 3d3c 749d bebd
00000030: 41b8 afbd a5c7 bdbd 53b8 bcbc 21fa 433d
00000040: 2e2f 69bd 4e87 84bd f6a6 d53d d8e9 e13d
00000050: 8493 e63c d4ab 48bd 9c7e cfbd 10bc be3d
00000060: f9ce 403d 2c50 9f3d 907f 0f3d 74e7 ffb9
00000070: de20 71bd 0d9e 91bd 76a0 a03d 16db b93d
00000080: 45b8 5a3c 068a c43d dcdd 153c 0f5e 99bd
00000090: 7206 883d da5a e0bc 9cba 923d 6efd 52bb
000000a0: 238d 7ebc a493 cb3d ab12 5d3d 05f0 16bd
000000b0: ee1c 883d af7b b7bc db33 043c d228 dcbc
000000c0: 11cd 7c3c bb9a 97bb 9558 68bc 03a5 5f3d
000000d0: 16af 36bc 8da1 38bd 7180 6d3d d23d dcbd
000000e0: 8dc5 4bbd 353b 763a 375e 22bd 96f2 b63d
000000f0: 3857 923d 00e0 e2bd 5202 d43c cea2 7b3b
00000100: 7c18 c3bd 5320 8bbd f218 42bd 288f c43d
00000110: 12c8 953d e025 4cbd 3286 d73d 69f9 263d
00000120: 0905 423d 785c 883d 31b1 173d f477 b83d
00000130: d8e9 f7bb 1473 69bd 2ce2 0abd 919f 013d
00000140: 9e13 d3bd
0.020809503 -0.01744475 -0.045252126 0.008419866 -0.08967609 0.053279776 0.015273395 -0.0721825
0.09177546 0.029952766 0.011582973 -0.093073756 -0.085800655 -0.09266595 -0.023037111 0.047845963
-0.05692976 -0.0647112 0.10432236 0.1103093 0.028146513 -0.048991993 -0.10131571 0.09313214
0.047072385 0.077789634 0.035033762 -0.00048809836 -0.058869235 -0.07110224 0.078431055 0.090749905
0.013349597 0.095966384 0.009147134 -0.074886434 0.06641854 -0.027387071 0.07164499 -0.0032194513
-0.015536579 0.099402696 0.05397288 -0.036849994 0.06646143 -0.022397844 0.008069004 -0.026874933
0.015429751 -0.0046265996 -0.014181276 0.054600727 -0.011150142 -0.04507594 0.05798382 -0.10753979
-0.049748946 0.0009392978 -0.03964063 0.08932988 0.07145542 -0.11077881 0.025880013 0.00383966
-0.095261544 -0.06793275 -0.04738707 0.095976174 0.07313551 -0.049840808 0.105236426 0.0407652
0.047368083 0.06658262 0.037034217 0.09007254 -0.007565718 -0.056994513 -0.0339071 0.031646315
-0.10306476

conv1_2.conv2.weight f4 [1, 1, 3, 3, 3]
00000000: 5155 243e eee3 2dbe b3b5 9f3d 4179 9abd
00000010: ccef 83bb e94b 18be 1d26 333e d953 233e
00000020: b5fe eb3d a46d e1bd ff37 913d b1e1 b8bd
00000030: 16c8 94bc 352a 2dbd daf1 33be 6de1 82bd
00000040: af28 35be a655 71bc 0bfe 053e 1f59 423e
00000050: 6547 073e 7f46 fa3d 7ac6 8e3c a85b 0ebc
00000060: 9168 483b 984f 05be c746 203e
0.1604817 -0.1698148 0.07798328 -0.075426586 -0.0040263887 -0.14872707 0.17495008 0.15949954
0.11523191 -0.110072404 0.070907585 -0.09027422 -0.018161815 -0.04227658 -0.17572728 -0.06390653
-0.17691301 -0.014729893 0.13085191 0.1897931 0.13210829 0.12220477 0.017428625 -0.008688845
0.0030579905 -0.13018644 0.15652

conv0_3.res_conv.weight f4 [1, 2, 3, 3, 3]
00000000: 19c7 01be cae1 fdbd b659 bc3c 52f0 dabd
00000010: a8a6 dbbd d539 d43d 7f7e 5c3d 980d 013e
00000020: f3af f4bd 6dba d83d 4665 883c 373c f43d
00000030: b342 1abd 4965 c93d 1d0d 77bc a64e 083e
00000040: 253e 803d 28e0 b5ba 19da 03be 0f4d 5f3d
00000050: ba12 82bd a6e8 b13c 1707 ad3b be3d e83c
00000060: 0d0b 3abd 8b7c 543c 3bf0 6c3d 61e8 6d3d
00000070: e03b 033e 600a e63d 76f8 9c3d 526a d4bc
00000080: 739d 02be f11c 24bb fb5f ffbd f474 c43d
00000090: 4a91 96bc e14e 773d 2109 dabd fff4 cdbd
000000a0: 491e 273d a255 c2bd c562 79bd 32e3 d9bd
000000b0: 95b4 5f3d d27a a5bc 1f38 ff3a d8be 9cbd
000000c0: 9cad 23bc 8259 073e e8a9 f53b 2cb5 073e
000000d0: 022c 083e 97f2 1abd
-0.12673606 -0.123965815 0.022991996 -0.10690369 -0.107251465 0.10362593 0.053831574 0.12602842
-0.11947622 0.10582433 0.016649853 0.119255476 -0.037661266 0.09833772 -0.01507881 0.13311252
0.06261853 -0.0013876008 -0.12876166 0.05451685 -0.06351228 0.02171738 0.005280386 0.028349753
-0.045420695 0.0129691465 0.05784629 0.058082942 0.12815809 0.112324476 0.07664578 -0.025929604
-0.12755375 -0.0025041664 -0.12469479 0.095926195 -0.018379826 0.06037796 -0.106462725 -0.10056495
0.040800367 -0.094889894 -0.06088521 -0.10639037 0.054615576 -0.020200167 0.0019471681 -0.07653588
-0.009990122 0.13217738 0.007497061 0.13252705 0.13298038 -0.037829008

conv0_3.conv1.weight f4 [1, 2, 3, 3, 3]
00000000: 57f0 0dbd cacb fa3d d961 2d3d 0ec3 8d3d
00000010: c629 763c 5115 cc3d 5e58 b7bc 0d45 02bd
00000020: 779f b53d b027 f2bd 896c ec3d 39a4 263d
00000030: 488a e8bd 8734 11bc 71c9 243d b238 b83d
00000040: 26f3 b63d 2592 073d 8cfc 023e 931e bcbd
00000050: 71ca 10bd e96e 2f3d 2eb8 b53d dc2c 05be
00000060: 178a 98bd 03fe 943d 4a7d 893c 867e 953d
00000070: 12b3 d13d eca7 01bc 04ed 013c 813d 94bd
00000080: dc84 983d 76c8 bfbd 7976 57bd 3fcf 21bd
00000090: 22c5 f3bd 0a44 d93d ff33 54bd feac 8abc
000000a0: 14fc 5a3c 8cef a63d 99df 21bd 369e b8bc
000000b0: c557 7ebd 9e84 ec3a 1814 85bb ea70 cd3d
000000c0: e888 f3bd 3274 83bc 10f5 ce3d 2260 883c
000000d0: 41e3 7b3d bd6d 4a3d
-0.034653034 0.12245901 0.042329643 0.06921969 0.015024608 0.09965003 -0.022381004 -0.031804133
0.08868306 -0.11823976 0.11544139 0.04068396 -0.113545 -0.008862621 0.040231172 0.08995189
0.08933096 0.03309836 0.12791651 -0.09185519 -0.035349313 0.04283038 0.0887302 -0.13005394
-0.074482135 0.072750114 0.016783375 0.07299523 0.10239233 -0.007913571 0.007930044 -0.072382934
0.07447216 -0.09364407 -0.05260322 -0.039504286 -0.119028345 0.106086805 -0.0518074 -0.016928192
0.013365764 0.08151159 -0.03951988 -0.022536378 -0.062095422 0.0018044894 -0.0040612333 0.10031302
-0.11891347 -0.016046617 0.10105336 0.016647402 0.061496023 0.04942106

conv0_3.conv2.weight f4 [1, 1, 3, 3, 3]
00000000: e1c3 77bd d397 673d 5383 3abe 2cbb 13be
00000010: 9120 77bd ea0f 06be 3a99 af3d 26a5 c93d
00000020: 490e 69bd 2a9f ec3d 1dd1 d5bd c634 b23c
00000030: 25dc 323e 667a be3d 50ad 2bbe 5669 c13d
00000040: 7470 d3bd dc1a 733c 6f9f b4bd c49e 0fbe
00000050: 36e8 eb3c 5211 b43d f38e 4a3d 99d1 0ebe
00000060: 6584 07be e334 023e 624c c1bd
-0.06048954 0.056541275 -0.18214159 -0.14426869 -0.060333792 -0.13092008 0.085741475 0.09845953
-0.05689839 0.11553796 -0.10440276 0.02175368 0.17466791 0.093006894 -0.16765332 0.09443919
-0.10324183 0.014837947 -0.08819472 -0.14025408 0.02879725 0.08792366 0.049452733 -0.13947143
-0.13234098 0.12715487 -0.09438397

out_conv.weight f4 [2, 1, 3, 3, 3]
00000000: 201d aabd dd55 68bd 24d4 50bc 0e56 f43d
00000010: 3fc5 0d3d a3ef 383e 3115 123b 285d a0bd
00000020: 1ddf e3bd 950b 0fbd 7c91 7f3c ed65 23be
00000030: c78d 283e d6d0 9d3d 54f4 20be d114 40bd
00000040: 328e 2cbe f7fd 213e 3bc1 43be 766d c63d
00000050: 22fc a5bc d72f 5a3d 1d28 193e 6a94 12be
00000060: 2743 093e 8ad3 913d 5376 323e 6949 3d3e
00000070: 4cdc 04b8 4248 a83d c6a1 8ebc fab7 fe3d
00000080: 3fb0 52bd 8b5e 91bd 74df cdbd 2b51 b3bd
00000090: 8ed1 923d 2259 823d 3e4e d9bc b2ea 8b3d
000000a0: 36f1 e13d 2117 123e 7699 d83d 3428 84bd
000000b0: e90b 3a3e 2fe9 163e 92ea 8b3c 5270 cebd
000000c0: 0a78 eb3d 411b 3dbe 9108 353e 23ff 233e
000000d0: 9ec2 a6bc d6d5 22be
-0.083063364 -0.05672251 -0.012745891 0.11930476 0.034611937 0.18060164 0.0022290463 -0.07830268
-0.1112654 -0.034923155 0.015598651 -0.1595685 0.16460334 0.07705848 -0.15718204 -0.046894852
-0.16851118 0.15819536 -0.1911668 0.09688847 -0.020261828 0.05326828 0.14956708 -0.14314428
0.13404523 0.07120426 0.1742795 0.18485035 -3.167642e-05 0.08216907 -0.017411124 0.124374345
-0.051437613 -0.07098111 -0.10052386 -0.08755716 0.07168876 0.06364657 -0.026526567 0.06831874
0.110323355 0.14266635 0.10576145 -0.06452981 0.18168606 0.1473739 0.017079625 -0.10080017
0.11497505 -0.18467428 0.17679049 0.16015296 -0.020356473 -0.15901884

out_conv.bias f4 [2]
00000000: ac9f 1ebe 253b 9ebd
-0.15490597 -0.07726125

exp_avg f4 [1, 3, 3, 3, 3]
00000000: 2cc8 13b9 7306 56b9 b79a 11b9 f68d 20b9
00000010: e834 3cb9 2b8f f1b8 9c60 4cb9 e89f 2eb9
00000020: 66ed a1b8 6fe0 42b9 2f3e 7cb9 e31d 2db9
00000030: 1bc5 54b9 a768 66b9 41b0 0eb9 d736 66b9
00000040: d0f1 44b9 f3d1 d8b8 7702 21b9 cae6 54b9
00000050: bf2b 18b9 3b14 2eb9 fb28 3db9 9fde 08b9
00000060: 0bd2 2fb9 fa43 1cb9 4763 f5b8 6a3b 08b6
00000070: 6594 3338 6650 b338 0ace 1137 3261 2c38
00000080: 70d8 e238 4f7f 0938 f88f 1d38 5dc9 b338
00000090: 2781 2138 7b69 4538 932f 5138 f4ef 8f38
000000a0: 5a2e 7d38 9a94 b038 1d03 bd38 875e 8438
000000b0: 2743 8238 8f49 06b8 32ab 2eb8 f730 07b7
000000c0: 4088 9b36 373a fcb7 ad2a a5b7 f79f 1438
000000d0: 67a3 72b7 2811 f2b7 7f5e 7f38 dbd6 4038
000000e0: c35a 6638 79dc 9138 0350 5a38 c23c 5238
000000f0: 48dd f937 3736 b338 530a bd38 bbcb 70b8
00000100: e2f9 1937 0ac4 8a38 c819 d6b7 2d6c 3b38
00000110: 6f4b bf38 9b52 6b37 9132 b038 2d6d d138
00000120: 5bf2 a0b8 f50c 0eb7 f2af aa38 db45 0cb7
00000130: 2def d036 3d96 f738 ab0e a937 0f1b 8438
00000140: 1a21 0039
-0.00014093582 -0.00020411033 -0.00013885913 -0.00015311674 -0.00017948786 -0.000115184426 -0.00019490946 -0.00016653503
-7.721297e-05 -0.0001858489 -0.00024055758 -0.000165097 -0.00020291323 -0.00021973495 -0.00013607835 -0.00021954939
-0.00018782099 -0.00010338789 -0.00015355075 -0.00020303871 -0.00014512146 -0.0001660147 -0.00018039711 -0.00013052904
-0.00016767548 -0.00014902643 -0.00011701002 -2.0300163e-06 4.281513e-05 8.5503605e-05 8.690646e-06 4.1098516e-05
0.000108168344 3.278191e-05 3.75658e-05 8.572892e-05 3.8505674e-05 4.7066696e-05 4.987379e-05 6.863466e-05
6.036307e-05 8.420013e-05 9.012802e-05 6.3118576e-05 6.211391e-05 -3.2016596e-05 -4.164427e-05 -8.058028e-06
4.6352216e-06 -3.006785e-05 -1.9689405e-05 3.543493e-05 -1.4462369e-05 -2.8856637e-05 6.0884744e-05 4.5976467e-05
5.49208e-05 6.955205e-05 5.2049767e-05 5.0124487e-05 2.9786155e-05 8.5454834e-05 9.014145e-05 -5.7410198e-05
9.177691e-06 6.616868e-05 -2.5522793e-05 4.468502e-05 9.12164e-05 1.4026325e-05 8.401753e-05 9.986232e-05
-7.674537e-05 -8.466876e-06 8.139004e-05 -8.360915e-06 6.226727e-06 0.00011805862 2.01532e-05 6.2992905e-05
0.00012219363

exp_avg_sq f4 [1, 3, 3, 3, 3]
00000000: 327f 0831 6e25 8f31 0281 0431 6a1c 2131
00000010: cd62 5d31 b358 b630 1888 8231 0696 3e31
00000020: bde0 2330 145b 6d31 2fd5 c631 0e4f 3b31
00000030: d878 8d31 92e6 a531 0580 fe30 de9e a531
00000040: 796b 7231 c5e8 9230 9006 2231 a5a5 8d31
00000050: 91b9 1031 9c65 3d31 77a2 5f31 872a ea30
00000060: 8d34 4131 449e 1831 242c bc30 61fd e72a
00000070: 2c8e 492f a6f5 4830 7bde 042d 9ab7 392f
00000080: 18cf a030 9e51 ec2e 7229 1b2f 2505 4a30
00000090: ee05 232f 6c92 732f f9be 882f b97c 0130
000000a0: 8650 c82f 10e1 4230 f548 5f30 2c05 db2f
000000b0: 761a d42f e169 e12e aaae 3e2f 5e75 e42c
000000c0: 7030 172c eece c62e 1180 2a2e f50e 0a2f
000000d0: acfa b72d 281d b72e b7ca cb2f 2d6b 682f
000000e0: 93d2 a52f cbf8 0430 4cf0 942f ca1f 8a2f
000000f0: c519 c32e fbba 4830 fd59 5f30 1b32 b52f
00000100: d32d 142d 02b3 f02f 4b3f 8f2e 8c8b 5b2f
00000110: d7b5 6430 6a0d ad2d e908 4230 8f0f 8930
00000120: 25e6 2130 ce3a fc2c a416 3630 baf4 f52c
00000130: d46a 882c 688f bf30 98a0 322e 2026 da2f
00000140: c736 cd30
1.9862907e-09 4.166103e-09 1.928186e-09 2.3444735e-09 3.2215894e-09 1.3267453e-09 3.79897e-09 2.7733917e-09
5.9618427e-10 3.453981e-09 5.7867946e-09 2.7257019e-09 4.1173784e-09 4.828345e-09 1.8517318e-09 4.820193e-09
3.5276726e-09 1.0689055e-09 2.3577833e-09 4.1224717e-09 2.106024e-09 2.7560878e-09 3.2543122e-09 1.7037828e-09
2.8115068e-09 2.2208875e-09 1.3691346e-09 4.120966e-13 1.8331353e-10 7.3108664e-10 7.552732e-12 1.689088e-10
1.1700392e-09 1.07465356e-10 1.4111892e-10 7.349448e-10 1.482687e-10 2.2152741e-10 2.487395e-10 4.710717e-10
3.6437003e-10 7.089662e-10 8.1230606e-10 3.9839543e-10 3.8581377e-10 1.0250623e-10 1.7342452e-10 6.49318e-12
2.1485279e-12 9.0407556e-11 3.876727e-11 1.255634e-10 2.0916012e-11 8.327056e-11 3.7069522e-10 2.1138354e-10
3.0162947e-10 4.8374876e-10 2.7091784e-10 2.512464e-10 8.872151e-11 7.302529e-10 8.125481e-10 3.295931e-10
8.423001e-12 4.3782938e-10 6.51413e-11 1.9967511e-10 8.3204327e-10 1.967378e-11 7.058945e-10 9.972484e-10
5.8898514e-10 7.1687994e-12 6.624339e-10 6.990489e-12 3.877213e-12 1.3937838e-09 4.061515e-11 3.9681058e-10
1.4931282e-09

exp_avg f4 [1, 3, 3, 3, 3]
00000000: 0a4d 593a 7ac9 7e3a 08b3 743a 7ac6 633a
00000010: 1ac4 863a 87cb 783a 8b6c 503a bfc8 823a
00000020: e334 863a df39 693a 7578 7c3a d8dc 763a
00000030: bb2f 733a 4ade 853a 8fa5 7b3a 5557 573a
00000040: 7cdf 813a 940f 863a 9862 513a 23db 6f3a
00000050: cd42 763a a0fd 5d3a 0f0e 833a 8e57 823a
00000060: 37ef 583a 8391 853a 72d8 853a 9f93 da36
00000070: a853 b0b4 5990 cb37 2fd6 8b38 25a1 07b9
00000080: 1010 06b9 b016 7038 03c2 4db9 e8d6 6eb9
00000090: 4369 1db8 4dba d8b7 bbac fd37 8686 3237
000000a0: 8f1d 95b8 fb4b 8437 2228 2c38 75a8 9eb8
000000b0: 4abc 45b7 625c 9238 8330 07b8 22ff ca37
000000c0: f80a 7b38 5006 6137 deb2 ad38 4f3f db37
000000d0: 078c 1738 3b03 5838 8e89 9039 87a4 1d39
000000e0: 3b85 0cb8 a889 7f39 9381 4b39 179e 23b8
000000f0: 9df7 6139 c01a 5e39 6ba0 5db7 9785 dc39
00000100: b8b6 8e39 00aa 7d39 31fd ab39 6bf0 9b39
00000110: 277f 6839 6344 4a39 04c5 a139 9e7c 9f39
00000120: 75b0 083a 3978 183a 5b0e 6e39 0dd9 e039
00000130: 7271 f639 2b32 2839 b1de b239 fda2 aa39
00000140: 4a30 4438
0.0008289373 0.00097193534 0.0009334539 0.0008688938 0.0010281831 0.0009490777 0.00079507445 0.000997804
0.001023915 0.0008896868 0.00096309866 0.00094170636 0.0009276827 0.0010213342 0.000959956 0.00082146126
0.0009908522 0.0010228031 0.0007987409 0.00091497804 0.00093941094 0.0008468274 0.0009998697 0.0009944306
0.0008275392 0.0010190461 0.00102116 6.5140916e-06 -3.2843423e-07 2.4266703e-05 6.667931e-05 -0.00012934634
-0.0001278522 5.724159e-05 -0.00019622598 -0.00022777508 -3.752975e-05 -2.583596e-05 3.0240384e-05 1.0640948e-05
-7.1103794e-05 1.5771007e-05 4.1045372e-05 -7.565405e-05 -1.17859545e-05 6.97903e-05 -3.223169e-05 2.4199082e-05
5.985328e-05 1.3412515e-05 8.2825994e-05 2.6136315e-05 3.6131616e-05 5.150142e-05 0.00027568307 0.00015033978
-3.350268e-05 0.00024369976 0.00019407859 -3.900946e-05 0.00021549915 0.00021181535 -1.3209977e-05 0.00042061202
0.00027220487 0.0002419129 0.00032804304 0.0002974303 0.00022172612 0.00019289697 0.000308551 0.0003041969
0.00052142824 0.00058162544 0.00022702797 0.00042886325 0.000470053 0.00016040418 0.00034116724 0.00032546362
4.6775014e-05

exp_avg_sq f4 [1, 3, 3, 3, 3]
00000000: c28f 9333 23dd ca33 381e bb33 4521 a233
00000010: 0406 e333 2c6f c133 74c0 8733 64ce d533
00000020: 8324 e133 84fb a933 1931 c733 f170 be33
00000030: b8cf b833 5202 e033 dae4 c533 72e9 9033
00000040: 61d6 d233 67a7 e033 b501 8933 bac8 b333
00000050: 9083 bd33 e8ff 9933 3fb1 d633 ec5c d433
00000060: 7010 9333 a801 df33 c3ee df33 994c 952c
00000070: d151 4228 987e 812e bc6d f42f 22f1 e530
00000080: 07a9 e030 0a22 b42f 0b4d 8431 7043 b231
00000090: 3fdd 1a2f bbc8 922e b318 c92e 2832 472d
000000a0: acf8 0a30 d3c7 da2d ba3c 392f cc53 1d30
000000b0: ee5e 742d 68e2 0530 d973 e42e 19c6 802e
000000c0: 03f2 c42f e13c 9e2d fb91 3c30 8037 962e
000000d0: 628a 0f2f 2ad1 912f a991 0232 f351 1b31
000000e0: 2bd3 f62e 9f0f cc31 ce6b 8131 1e51 272f
000000f0: f490 9f31 5328 9a31 b17e 992d e7f7 9732
00000100: 1597 fe31 5e14 c931 5de0 3832 39fb 1732
00000110: c4eb a831 31b3 7f31 0b8f 2332 a7f9 1e32
00000120: ad8c e932 2d4b 1133 8f18 b131 3ffd 9d32
00000130: 61cb bd32 cfcf 3031 19f7 4732 00fb 3532
00000140: f78f 702f
6.87137e-08 9.4465825e-08 8.713363e-08 7.5497645e-08 1.05716055e-07 9.007485e-08 6.3214344e-08 9.956128e-08
1.04840204e-07 7.915426e-08 9.2755904e-08 8.8681084e-08 8.6059515e-08 1.0431235e-07 9.215155e-08 6.747986e-08
9.817882e-08 1.0461263e-07 6.37987e-08 8.371849e-08 8.8249294e-08 7.171167e-08 9.9973924e-08 9.888922e-08
6.848211e-08 1.0384548e-07 1.0427677e-07 4.2433388e-12 1.07869044e-14 5.8887284e-11 4.4461312e-10 1.6730477e-09
1.6346186e-09 3.2765995e-10 3.8504644e-09 5.1881486e-09 1.4084821e-10 6.674968e-11 9.144809e-11 1.1322977e-11
5.055749e-10 2.487247e-11 1.6847226e-10 5.723535e-10 1.3890873e-11 4.870686e-10 1.0388818e-10 5.855955e-11
3.5824152e-10 1.7989556e-11 6.860145e-10 6.831069e-11 1.3054938e-10 2.6523966e-10 7.600115e-09 2.2602051e-09
1.1224296e-10 5.9389573e-09 3.76665e-09 1.521738e-10 4.6439883e-09 4.4865742e-09 1.7450348e-11 1.7691447e-08
7.409549e-09 5.8521854e-09 1.0761224e-08 8.846478e-09 4.916247e-09 3.7209242e-09 9.520373e-09 9.253575e-09
2.7188742e-08 3.3828815e-08 5.15417e-09 1.8392369e-08 2.2094982e-08 2.5729496e-09 1.1639508e-08 1.0592657e-08
2.187902e-10

exp_avg f4 [1, 1, 3, 3, 3]
00000000: 744d b4b8 2fa0 9036 2037 3739 2c26 2ab9
00000010: 8bff 9fb7 8504 d237 63ab 13b9 62f5 6937
00000020: 28fa f7b8 97ea 9cb6 a0fe d438 f04d 2439
00000030: e58a 8cb8 655b 1636 37ae 5438 fb4b 1ab9
00000040: c7c0 9db8 32f7 e8b8 e36a ba37 4d7c fc38
00000050: a330 6439 836a 02b9 9d8b fe36 e894 b538
00000060: b3df 2cb9 8cb1 a0b8 e32b a8b7
-8.5974956e-05 4.3101822e-06 0.00017472776 -0.00016226684 -1.9073274e-05 2.5036055e-05 -0.00014082859 1.3945015e-05
-0.00011824473 -4.676472e-06 0.00010156375 0.00015669293 -6.701591e-05 2.240494e-06 5.070699e-05 -0.0001471489
-7.522251e-05 -0.00011108666 2.22227e-05 0.00012039449 0.00021761893 -0.00012437445 7.586043e-06 8.6584885e-05
-0.00016486533 -7.662465e-05 -2.0047597e-05

exp_avg_sq f4 [1, 1, 3, 3, 3]
00000000: 6b2e 4b30 8eba 022c 93cc 5131 27f1 3431
00000010: 15ff 1f2e efd5 892e 0b4a 0831 460d ab2d
00000020: 252a c030 64e4 192c 5fc5 8d30 85b9 2831
00000030: 12e7 f62f 924b 0d2b 675a 8d2f 01cc 1431
00000040: a389 1b30 619a a930 6632 592e 2a37 c730
00000050: 8ab8 a231 b99a d430 ad7a ca2c 0b13 4e30
00000060: 92c8 3a31 de63 2130 9dc2 302e
7.3916934e-10 1.857767e-12 3.052979e-09 2.6330527e-09 3.6378973e-11 6.268041e-11 1.9832693e-09 1.9446344e-11
1.3981817e-09 2.186939e-12 1.0315196e-09 2.4552673e-09 4.4911325e-10 5.019814e-13 2.5711985e-10 2.1652797e-09
5.6584265e-10 1.2340245e-09 4.938485e-11 1.4494834e-09 4.7358e-09 1.5469005e-09 5.754805e-12 7.4969425e-10
2.7180573e-09 5.871338e-10 4.0190618e-11

exp_avg f4 [1, 1, 3, 3, 3]
00000000: 859b d238 d86d 11b9 0c76 05b9 cf33 e838
00000010: 077e 92b8 aadb a4b8 1b61 8238 24b1 3d39
00000020: 76cc bfb8 da09 68b8 b397 6fb9 c741 24b9
00000030: 1a29 c7b7 32be 32b9 e2ed 5838 0028 ceb4
00000040: eda8 2fb9 ea70 6737 5ba9 6b37 1364 b1b9
00000050: ad6c ceb9 1d5b 3a38 1986 beb9 e35a 7eb9
00000060: bd4e d5b8 6f02 c6b9 cf0c c2b8
0.00010042548 -0.00013869198 -0.00012727844 0.00011072272 -6.985297e-05 -7.861045e-05 6.21697e-05 0.00018090435
-9.1456735e-05 -5.5322285e-05 -0.00022849329 -0.00015664763 -2.3741788e-05 -0.00017046256 5.171996e-05 -3.8399594e-07
-0.0001675223 1.3794963e-05 1.4046523e-05 -0.00033834632 -0.00039372352 4.443071e-05 -0.00036339535 -0.00024257186
-0.000101712976 -0.00037767316 -9.253027e-05

exp_avg_sq f4 [1, 1, 3, 3, 3]
00000000: 6a9c 8a30 632f 0431 fda5 de30 5b7e a830
00000010: fc1f 0630 17dd 2930 0f7c d42f dde4 6031
00000020: c5ea 6530 7d41 a82f b063 b331 8ca0 2831
00000030: e1e7 772e 78ae 4731 a20e 932f 52d0 8428
00000040: 39da 4031 f963 a72d 188d ad2d 10ac 4432
00000050: dd28 8532 a40d 592f ecde 6232 302d ca31
00000060: 1830 8e30 6b0c 7532 ac58 6b30
1.0085277e-09 1.9235464e-09 1.6199803e-09 1.2259521e-09 4.879437e-10 6.179603e-10 3.8650724e-10 3.2726384e-09
8.364334e-10 3.0605554e-10 5.220919e-09 2.4538478e-09 5.6367248e-11 2.9057485e-09 2.6749541e-10 1.4745288e-14
2.8063722e-09 1.9030099e-11 1.9730481e-11 1.1447824e-08 1.550182e-08 1.9740881e-10 1.3205618e-08 5.884111e-09
1.0345529e-09 1.42637e-08 8.561851e-10

exp_avg f4 [1, 1, 3, 3, 3]
00000000: 2f2d 023a 7dfa 9bb9 77e4 90ba ce10 c039
00000010: 01cf beb9 8262 8fba 03a0 fe39 333d e4b9
00000020: 38cd 66ba fd25 133a caf8 a7b9 aa0f 7cba
00000030: 88fa 013a 3867 ddb9 caef 57ba f78c fa39
00000040: c303 d3b9 3b36 3bba 55c3 863a a383 1bb9
00000050: a728 78ba 6794 3e3a 43d6 9bb9 5b72 35ba
00000060: 22d8 483a c103 a0b9 679e 00ba
0.00049658393 -0.00029750532 -0.0011054416 0.00036633614 -0.00036393854 -0.0010939392 0.00048565873 -0.00043533146
-0.00088043837 0.00056132657 -0.00032038084 -0.0009615371 0.00049582915 -0.0004222931 -0.00082373305 0.00047788743
-0.0004024786 -0.0007141565 0.0010281602 -0.0001483099 -0.0009466507 0.00072700385 -0.0002972354 -0.00069216423
0.0007661601 -0.00030520375 -0.0004906416

exp_avg_sq f4 [1, 1, 3, 3, 3]
00000000: f4d2 d332 db0e 1832 1d36 0334 bd8e 6632
00000010: af8c 6332 b87e 0034 229b ca32 76ca a232
00000020: 8577 a633 3d54 0733 4257 3032 e08b c633
00000030: 3b2e d332 812f 9932 ebb6 9133 802c c432
00000040: c325 8b32 3d0d 5b33 6c03 e333 7927 1731
00000050: 3b72 c033 fe00 6333 40c8 1732 a5c4 4d33
00000060: 781d 7c33 8207 2032 e8c8 ce32
2.4659563e-08 8.850942e-09 1.2220012e-07 1.3420217e-08 1.3245127e-08 1.1967029e-07 2.3586441e-08 1.895135e-08
7.751718e-08 3.150875e-08 1.02643885e-08 9.2455366e-08 2.4584656e-08 1.7833147e-08 6.785361e-08 2.283764e-08
1.6198902e-08 5.100195e-08 1.0571134e-07 2.199583e-09 8.961475e-08 5.285346e-08 8.834888e-09 4.790913e-08
5.8700124e-08 9.314933e-09 2.4072918e-08

exp_avg f4 [1, 2, 3, 3, 3]
00000000: 4b9f 1db8 776b 79b6 df7d 2639 db33 9cb8
00000010: b285 aeb7 e72e 2539 2504 bab8 1b65 e1b7
00000020: 531a 3139 0dd2 68b8 fcd6 49b8 a398 0c39
00000030: ef8f 99b8 078b 21b8 0498 0e39 1ad0 a5b8
00000040: c8a2 eeb7 22fa 2639 0b25 61b8 ddb0 6ab8
00000050: 8fd6 2139 7725 8db8 a7c0 05b8 1395 1439
00000060: 0f3b 99b8 c740 bdb6 183f 2a39 f369 5a39
00000070: fb82 5a39 6fc7 3a39 df21 6239 73ef 4439
00000080: d092 1c39 7306 8339 808a 4839 0b91 0d39
00000090: 2792 6d39 edad 5d39 ff30 2d39 4bcb 7439
000000a0: d704 5139 f4e6 1e39 6ffe 8739 55f5 4f39
000000b0: 5be0 1339 832c 7839 7dac 6439 4d8d 2939
000000c0: f027 7639 8bd2 5639 87e0 2139 9813 8439
000000d0: 3fe6 4f39 2f90 1439
-3.758007e-05 -3.7166444e-06 0.00015877884 -7.4483185e-05 -2.0804673e-05 0.00015753099 -8.869943e-05 -2.6869171e-05
0.00016889842 -5.5508735e-05 -4.8122354e-05 0.00013408302 -7.322418e-05 -3.851487e-05 0.00013598806 -7.906575e-05
-2.8447612e-05 0.00015924175 -5.367868e-05 -5.5954664e-05 0.00015434086 -6.730382e-05 -3.1889092e-05 0.00014169914
-7.306609e-05 -5.64018e-06 0.00016235968 0.00020829569 0.00020838894 0.00017812637 0.00021565658 0.00018781218
0.00014932011 0.00024991072 0.00019125082 0.0001350084 0.00022656527 0.00021140995 0.00016516818 0.00023345386
0.00019933596 0.00015154091 0.00025938774 0.00019832452 0.00014102591 0.00023667705 0.00021808031 0.00016169735
0.00023475266 0.00020487064 0.000154378 0.000251916 0.00019826832 0.00014168092

exp_avg_sq f4 [1, 2, 3, 3, 3]
00000000: a147 1b2f 2e68 c22b 2d3f 2d31 c87e 1830
00000010: d25c 3e2e cb88 2a31 3c43 5830 4fc2 9e2e
00000020: aa08 4431 5064 a92f e09e 7e2f 5f17 f730
00000030: 2d62 1330 dc19 232f 9629 fe30 44d6 2b30
00000040: aaf5 b12e 2742 2e31 1d68 9e2f d81f ac2f
00000050: 85b2 2331 5707 f92f 309f df2e bafa 0931
00000060: 6ebf 1230 bcda 5f2c 2d26 3531 b213 9531
00000070: df35 9531 400a 5a31 a8cc 9f31 a565 7231
00000080: 6a38 1931 5598 d631 b85a 7b31 8383 fa30
00000090: f25f b031 6891 9931 6978 3b31 5543 bb31
000000a0: 1f87 8831 d6cf 1d31 de2d e731 5625 8731
000000b0: e1ab 0831 3878 c031 5c69 a331 96ac 3331
000000c0: 3a5a bd31 f136 9031 b1c6 2331 7c0d da31
000000d0: ba11 8731 a7f1 0931
1.4122616e-10 1.3813445e-12 2.5210725e-09 5.5477445e-10 4.328344e-11 2.4816014e-09 7.867589e-10 7.219524e-11
2.8526679e-09 3.0812197e-10 2.3157609e-10 1.7978258e-09 5.3617805e-10 1.4833951e-10 1.8492752e-09 6.251393e-10
8.092667e-11 2.5357936e-09 2.881401e-10 3.1309244e-10 2.3821098e-09 4.5298051e-10 1.0169143e-10 2.0078645e-09
5.338653e-10 3.1811628e-12 2.6360667e-09 4.33871e-09 4.342595e-09 3.1729002e-09 4.6507758e-09 3.5273413e-09
2.2296498e-09 6.245538e-09 3.6576875e-09 1.8227272e-09 5.133182e-09 4.469417e-09 2.7280527e-09 5.450071e-09
3.9734824e-09 2.2964648e-09 6.7281993e-09 3.9332617e-09 1.9888307e-09 5.6016027e-09 4.7559023e-09 2.6146032e-09
5.5108815e-09 4.1971977e-09 2.3832565e-09 6.346168e-09 3.9310324e-09 2.0073487e-09

exp_avg f4 [1, 2, 3, 3, 3]
00000000: 27b6 7839 0c77 1e3a ea6b fc39 7f26 5039
00000010: 9d10 d839 af82 ac39 eea7 093a bd6b 0d3a
00000020: 4be7 a039 3a18 2439 82c2 103a cfec ea39
00000030: 0da0 00b7 1d25 d939 aab6 bd39 dd34 2a39
00000040: 6b3a f339 995d ca39 fa5f 0339 adda 153a
00000050: 7b07 be39 95bd 7237 b7ce d939 4020 9f39
00000060: 5bbd b639 3d2d f139 7fac a939 5eb4 b9b9
00000070: 2e1f 2eba 6f3e 2eba 5da7 8fb9 6ac0 17ba
00000080: 0c5f 2bba 4720 42ba ea44 71ba ab21 81ba
00000090: 019e a3b9 27f7 1cba 0f32 1dba e33a 86b9
000000a0: 9b2e 1bba e4fe 29ba 23c4 3eba 72ca 7eba
000000b0: 5370 83ba 4842 67b9 50a5 f8b9 9ba4 02ba
000000c0: dfc0 4fb9 777f 0bba 7835 1cba 7da1 35ba
000000d0: ea33 76ba d8ee 7eba
0.0002371898 0.0006044961 0.00048145588 0.00019850767 0.00041211108 0.00032903763 0.0005251159 0.00053947774
0.00030689905 0.00015649284 0.0005522148 0.00044808394 -7.666659e-06 0.00041417117 0.00036184984 0.00016232156
0.00046392097 0.00038598178 0.00012528888 0.0005716484 0.00036245197 1.44684645e-05 0.0004154348 0.0003035087
0.00034854826 0.00046000807 0.00032362711 -0.00035420334 -0.00066422194 -0.00066468766 -0.0002739978 -0.0005788865
-0.00065372954 -0.00074053224 -0.00092036894 -0.0009851953 -0.00031207505 -0.00059877563 -0.0005996534 -0.00025602346
-0.00059197255 -0.000648482 -0.00072771515 -0.0009719498 -0.0010027982 -0.00022054568 -0.00047425414 -0.00049836346
-0.00019812908 -0.0005321423 -0.0005958895 -0.00069286657 -0.0009391891 -0.00097249215

exp_avg_sq f4 [1, 2, 3, 3, 3]
00000000: f14d c131 def1 1c33 4f1d c732 4365 8731
00000010: 3ce3 9132 caff 3932 55dd ec32 8bff f932
00000020: e5cf 2132 474b 2831 a3f8 0233 d177 ac32
00000030: 37ce ce2c 8e59 9332 f5f1 6032 6710 3531
00000040: f8df b832 f2f2 7f32 f8bd d730 0d5a 0c33
00000050: c5b1 6132 6222 b82d 1440 9432 b941 1e32
00000060: 0fb6 5032 f8c4 b532 baee 3332 e589 5732
00000070: 707d 3d33 7cc1 3d33 3ffa 0032 afed 0f33
00000080: fc8c 3733 e587 6b33 a9e8 b533 d46f d033
00000090: f150 2732 0bfd 1933 b370 1a33 a238 e131
000000a0: 5982 1633 a59d 3433 c472 6333 afde ca33
000000b0: adf3 d733 8c20 a731 c533 c132 4c58 d532
000000c0: 2ee1 8631 f13e f332 f081 1833 9a2f 4e33
000000d0: a76c bd33 aa18 cb33
5.6259e-09 3.6541557e-08 2.3179977e-08 3.9405292e-09 1.6983556e-08 1.0826577e-08 2.7574666e-08 2.9103623e-08
9.418703e-09 2.4490008e-09 3.0494117e-08 2.0077922e-08 5.8777666e-12 1.7153777e-08 1.3093531e-08 2.634829e-09
2.1522268e-08 1.4898193e-08 1.5697301e-09 3.267819e-08 1.3137144e-08 2.0933647e-11 1.7258607e-08 9.211754e-09
1.2148589e-08 2.1160744e-08 1.0473451e-08 1.2546001e-08 4.4119076e-08 4.4180965e-08 7.50748e-09 3.3510954e-08
4.2736232e-08 5.4838797e-08 8.47079e-08 9.706096e-08 9.739083e-09 3.585323e-08 3.595842e-08 6.5548003e-09
3.5043147e-08 4.2052893e-08 5.2956935e-08 9.446864e-08 1.0056042e-07 4.86404e-09 2.24917e-08 2.4836616e-08
3.9255132e-09 2.8317546e-08 3.5508435e-08 4.8006406e-08 8.820762e-08 9.4574105e-08

exp_avg f4 [1, 1, 3, 3, 3]
00000000: ca95 fbb7 1fb0 dfb7 7d79 283a e727 38b9
00000010: 93dc 56b9 5ba2 2c3a cc7c 86b7 b96c 80b9
00000020: e569 2e3a cf30 9038 d79d a0b8 afe0 123a
00000030: 8d61 1bb6 cf64 46b8 db57 2f3a ef64 9037
00000040: 330c 3ab9 e8d6 4d3a 6772 9339 9aae bc35
00000050: 3161 023a 7da8 7039 4a55 dc37 814d 163a
00000060: 1684 8539 12f1 0e38 5986 4b3a
-2.9991283e-05 -2.6665684e-05 0.00064267946 -0.00017562472 -0.000204908 0.0006585472 -1.6032158e-05 -0.00024495067
0.0006653353 6.8755464e-05 -7.6587945e-05 0.00056029385 -2.3153582e-06 -4.7300764e-05 0.00066888117 1.7213139e-05
-0.00017742887 0.0007852153 0.0002812326 1.4057907e-06 0.0004973589 0.0002295095 2.626576e-05 0.0005733595
0.00025466149 3.4079952e-05 0.0007763855

exp_avg_sq f4 [1, 1, 3, 3, 3]
00000000: 0fcc c52e 0c5d 9c2e e365 3133 69f5 5331
00000010: 6a44 9031 1b44 3a33 0916 e22d 4a29 ce31
00000020: 3220 3e33 83f1 0130 493c 2130 e1d4 0633
00000030: 3de5 162b 2600 762f 6028 4033 874f 022e
00000040: f755 5831 ea67 8433 f0e0 0732 7581 5e2a
00000050: 557c d432 14fd b431 5db5 972e 7831 0d33
00000060: d6d4 de31 6f67 ff2e e071 8133
8.994771e-11 7.110587e-11 4.130369e-08 3.084404e-09 4.1987294e-09 4.336844e-08 2.5703011e-11 6.000083e-09
4.4267104e-08 4.7273135e-10 5.865713e-10 3.139292e-08 5.3608837e-13 2.2373622e-10 4.4740204e-08 2.9629212e-11
3.1481002e-09 6.165631e-08 7.909179e-09 1.9762475e-13 2.4736588e-08 5.267461e-09 6.8989016e-11 3.2874112e-08
6.485247e-09 1.1614431e-10 6.027744e-08

exp_avg f4 [1, 1, 3, 3, 3]
00000000: 280c 5337 1b62 8ab8 6f7a bd36 b700 9b37
00000010: 87be 22b8 0028 8038 cd63 b937 1389 94b7
00000020: fd44 5d38 ca5b 2e38 797f b7b8 5d08 1d38
00000030: 976e e237 cf3e 08b9 433f 2f38 07ab 7237
00000040: 7371 f6b8 e536 0638 0824 1039 d55f 08b8
00000050: b0eb a237 679a ad38 9f95 36b6 3f9a 1138
00000060: 2fc6 8f38 b071 54b7 c2a1 1438
1.257941e-05 -6.598626e-05 5.646892e-06 1.8477773e-05 -3.8801252e-05 6.110966e-05 2.2100192e-05 -1.7706805e-05
5.2754756e-05 4.1570318e-05 -8.7498636e-05 3.7439506e-05 2.6992797e-05 -0.00012993369 4.178217e-05 1.4464144e-05
-0.00011751326 3.1999214e-05 0.00013746333 -3.2514177e-05 1.9421655e-05 8.2780425e-05 -2.7207204e-06 3.4714347e-05
6.855686e-05 -1.2662655e-05 3.54366e-05

exp_avg_sq f4 [1, 1, 3, 3, 3]
00000000: d630 8b2d bd5f ef2f 3663 602c 6229 162e
00000010: 1a89 252f e24c cd2f 09cf 562e 73e4 092e
00000020: 2600 992f 7301 3e2f 6472 5230 d01e 1a2f
00000030: 2839 a02e f308 e830 7df2 3f2f 3c06 b82d
00000040: 64cb bd30 3f2b e12e 7dda 0131 7a79 e82e
00000050: 07e5 252e e15c 3c30 555b 502b 2680 042f
00000060: 9d31 0130 fe09 8d2d 4a12 0a2f
1.5824158e-11 4.3541873e-10 3.1887388e-12 3.4142807e-11 1.5055371e-10 3.734391e-10 4.884185e-11 3.1353097e-11
2.7830643e-10 1.7280914e-10 7.6560114e-10 1.4017165e-10 7.2861106e-11 1.6882765e-09 1.7457498e-10 2.0921147e-11
1.3809367e-09 1.02394974e-10 1.8896167e-09 1.0571717e-10 3.7720074e-11 6.852599e-10 7.4023193e-13 1.2050858e-10
4.700043e-10 1.6034282e-11 1.2557524e-10

exp_avg f4 [1, 1, 3, 3, 3]
00000000: a3ea 9b38 4360 a338 2361 2d39 d3fc 3238
00000010: c748 3738 af6e 9a38 d727 5138 cae0 81b8
00000020: f35d 2c38 6db1 c938 6843 a7b5 5075 5138
00000030: 573c 9938 cb2b 6db7 7ef6 8038 7f99 9738
00000040: 48dc 07b9 ca37 0d38 cdad 4e39 57ba 6b38
00000050: 27a5 a337 e722 3139 c157 aa37 66b8 2fb7
00000060: dab9 0939 1eb7 2738 1592 0137
7.4346804e-05 7.790376e-05 0.00016534752 4.2673968e-05 4.369838e-05 7.363909e-05 4.9866587e-05 -6.1930696e-05
4.1095493e-05 9.617475e-05 -1.2462087e-06 4.993874e-05 7.306848e-05 -1.4136497e-05 6.1494284e-05 7.228832e-05
-0.00012956664 3.3668977e-05 0.00019710437 5.620191e-05 1.950802e-05 0.00016893038 2.0306443e-05 -1.0473746e-05
0.00013134573 3.9986444e-05 7.723012e-06
